model_for_visulization.pth (torch_old, 265465 bytes, 19 tensors)

weight f4 [25, 20]
00000000: 82d4 87bf a50b f63e d786 a6be c71c 53bf
00000010: b3a9 91be c20a 213f fd85 763f c28a 8bbf
00000020: d1d8 23bf 33cc 943f 3824 ffbf a003 cebf
00000030: 73f6 14bf 75bf 87be 2cb0 c33e b7b4 793e
00000040: 4f51 943f 3147 a5be 8689 92bf 3385 58bf
00000050: ced2 3ebf 3a6c 043e 4566 b3bf a86a 9d3e
00000060: 29a2 98bf c29d c4be 6160 66bf a5e8 75be
00000070: 85ea 223f 8ab8 bdbf 98b9 a03e d409 6d3f
00000080: 19cc 08c0 55c6 80bf 928d 553f 3379 4bbf
00000090: af6b 0f3e 7d29 ddbe b982 8bbf 677b 82be
000000a0: a87c a73e c9f2 453f 24a8 c9bf 202c aabe
000000b0: 197e b1be 0e32 bfbe 36aa 34bd 11c3 3dbf
000000c0: 350e 1fbf 27f0 843e 2453 dbbf a325 0940
000000d0: bb80 44be 6095 603e d6e4 ccbf 02eb 813f
000000e0: 9a36 f3be 0129 20be 3ad3 f0be c642 213f
000000f0: 1348 61bf 0864 a73f 0075 a23e 6814 8c3f
00000100: d19e 443e 9496 9bbd c7e8 1f3f 1870 403f
00000110: d2e4 38bf ebc8 a53f b849 01c0 1842 34bf
00000120: c0e3 42be 3504 9d3f 796c a4be 55bf 063f
00000130: 4ea8 53be feba 673e 75ae a13e f1dc 853f
00000140: 10e2 9dbe 1b72 e8bf 041f ac3e d00f d8be
00000150: 19a3 7d3f 3ed1 2dbf 8197 90bf dc1e 183f
00000160: fb12 60bf f978 5abd af31 45be bc08 eabd
00000170: 2938 86be ca91 05be 349b 5cbf 81a5 d3be
00000180: 052e 57bf fa99 413d 93fa 043f f169 453f
00000190: 8826 39be ea93 6e3f 9e11 1abf 76c6 40bf
000001a0: e8e3 a23e dc30 9a3e 7d28 c0be 68b5 2c3f
000001b0: 4077 d13f daa5 2d3e d962 1ebf 7f2a 22c0
000001c0: 4fe1 b53f a0a1 0cc0 a5a4 d4bf 3265 44bf
000001d0: 0169 ddbe 3595 a1be 1532 49bf 6a20 bb3f
000001e0: 842c ad3f 8d8e 94bf 2985 aebe 3bf4 823f
000001f0: 85f4 89be 7c24 883f 5a6d 7a3f 2548 ecbe
00000200: 3a76 44bd cfe3 2ebf 4df4 13be 6140 b33d
00000210: 9553 84bb b9d1 4bbf 6ab7 de3f f05d 273e
00000220: 69b9 4c3f 2880 4b3f 4cbc efbc bc01 93be
00000230: 2225 1ebf 7108 0bbf fc46 bfbd 60eb babe
00000240: c1c9 fcbe caa5 df3f bca9 a9bd 52a6 a23f
00000250: 3af7 63bf fb70 553f 44ea ddbf 1d8a 973f
00000260: 09e0 1cbf 3ebf d03e 1389 493e 716b 333f
00000270: 448e c33e 3289 18bf 67e0 53bf 0632 dc3e
00000280: b4c3 543f 797d 653f ee7f 73be c00a 96be
00000290: 4d75 a43f 09d4 1a3e 9b27 82bf a76d af3f
000002a0: 8d7e 89be ad62 9e3d 6108 823e a8ff e33f
000002b0: e349 9f3f ecdd a53c 788e 8cbf ff66 4c3e
000002c0: e5fa 14bd 5d6c e8bc 98fb dc3e f10e 993e
000002d0: 4f27 ee3c 2601 d33e c486 f9be 13cb b23f
000002e0: 6cf5 10be 3f87 a1bf 94e5 cc3e 1043 cfbe
000002f0: ff86 3abd 754e 423f f256 8bbf 6d5f 40bf
00000300: 5673 c33e 0b3f 8f3e 2519 2a3f 857f ac3f
00000310: afce 9fbe d678 5dbf 434f 98be ed0d 48be
00000320: 19de 3abf f314 80bf d1cd 3cbf 409d e03e
00000330: 87e8 533f 32c4 0ac0 5105 b8bf f460 0bbf
00000340: 4a23 0fbe 2527 883f 46bd 48bf de84 ab3e
00000350: d693 0e3e 6d74 823f b601 36bf 87ec 1dc0
00000360: 5dd1 81be 851a f3be 4050 d83f 84e5 f73e
00000370: 566d 973f 9ed1 a2bf e13b c3bf c1ce 503d
00000380: ad2c 3abf 8189 8b3e a9fe 573e f267 4f3e
00000390: 0619 ed3c f62e 00c0 ac5e 36be ba71 a1bf
000003a0: da03 943f 56bd c13e f283 3c3f c6e9 d6be
000003b0: c061 e93e 922d 8dbf 55fe c23e 51f5 5d3e
000003c0: a9c2 953f 72d3 093f 0cbc 0d3f bc77 223e
000003d0: 6a76 0cbf 9cb8 a8bf 36f5 9d3f 79ea ff3e
000003e0: e3a4 393f b844 16bf 533f b5bf e093 393f
000003f0: d9a0 0040 94ba 71be 7dbc 9cbf 976a a7be
-1.0611727 0.4805576 -0.3252475 -0.82465786 -0.28449783 0.6290704 0.962982 -1.090172
-0.6400271 1.1624817 -1.9932928 -1.6094856 -0.5818855 -0.26513258 0.38220346 0.24385343
1.1587313 -0.32280877 -1.1448219 -0.84578246 -0.7454041 0.1293191 -1.4015585 0.30745435
-1.1924487 -0.3840161 -0.8999081 -0.24014528 0.636391 -1.4821942 0.31391597 0.9259312
-2.1374571 -1.0060526 0.83419144 -0.7948181 0.14005922 -0.43195716 -1.0899268 -0.25484774
0.32712293 0.77323586 -1.5754437 -0.3323679 -0.34666517 -0.37342876 -0.04410764 -0.7412577
-0.62131053 0.25964472 -1.7134748 2.1429222 -0.19189732 0.21931982 -1.6007335 1.0149844
-0.47502595 -0.15640642 -0.47036153 0.62992513 -0.880006 1.3077402 0.3172989 1.0943727
0.19201209 -0.0759708 0.62464565 0.7517104 -0.7222415 1.295194 -2.0201244 -0.7041335
-0.19032192 1.2266909 -0.32114008 0.526357 -0.20669672 0.22629926 0.31578413 1.0458051
-0.30836535 -1.8159822 0.33617413 -0.42199564 0.9907699 -0.67897403 -1.1296235 0.5942209
-0.8752896 -0.053338025 -0.19257234 -0.11427447 -0.26214722 -0.13043895 -0.8617432 -0.41337207
-0.84054595 0.047265984 0.51944846 0.7711478 -0.18081105 0.9319445 -0.6018313 -0.7530283
0.31814504 0.30115402 -0.3753089 0.67464304 1.6364517 0.16957799 -0.6186958 -2.5338438
1.4209384 -2.1973648 -1.6612746 -0.7671691 -0.43244174 -0.31559148 -0.78592044 1.4619267
1.352921 -1.1606003 -0.34085968 1.0230783 -0.26944366 1.0636134 0.9782311 -0.46148792
-0.047964312 -0.6831636 -0.14448662 0.08752514 -0.004038284 -0.79616886 1.7399724 0.16344428
0.79970413 0.79492426 -0.029264592 -0.2871226 -0.6177541 -0.54309756 -0.09339711 -0.36507702
-0.49372676 1.747247 -0.082843274 1.2707007 -0.8904911 0.8337552 -1.7337117 1.1839024
-0.6127935 0.40770906 0.19681196 0.7008582 0.38194478 -0.59584343 -0.82764286 0.43006915
0.8311112 0.8964458 -0.2377927 -0.29305077 1.2848297 0.15119947 -1.0168337 1.3705338
-0.26854363 0.07733665 0.25397018 1.7812395 1.2444423 0.020247422 -1.0980978 0.19961165
-0.036372084 -0.028371984 0.431607 0.29894212 0.029071478 0.41211814 -0.4873563 1.3968223
-0.14156121 -1.2619399 0.40018904 -0.40480852 -0.0455389 0.75900966 -1.0885909 -0.7514561
0.38173932 0.27977785 0.6644462 1.3476416 -0.31212375 -0.86512506 -0.29747972 -0.19536562
-0.72995144 -1.0006393 -0.7375155 0.43869972 0.82776684 -2.1682248 -1.4376622 -0.54444814
-0.13978305 1.0636946 -0.7841381 0.33499807 0.13923582 1.019178 -0.7109636 -2.4675615
-0.25355044 -0.4748117 1.689949 0.48417294 1.1830242 -1.272022 -1.5252649 0.050978426
-0.7272442 0.27253345 0.21093239 0.20254496 0.028942596 -2.0028663 -0.17809552 -1.2612832
1.1563675 0.37839764 0.7363883 -0.4197523 0.4558239 -1.1029532 0.38084665 0.21675612
1.170003 0.53838265 0.5536506 0.15865988 -0.54868186 -1.3181338 1.2340457 0.49983576
0.7251722 -0.58698606 -1.415995 0.72491264 2.0098174 -0.2360633 -1.2245022 -0.3269851

weight_ih_l0 f4 [160, 20]
00000000: a57c aebd 68ac 86bc c0d8 4b3c 76bc 53bd
00000010: 1016 963c 401d f2bc 15c5 cdbd 1bfa bebd
00000020: 8a8a c93d 1c23 e4bd 3ab2 fe3d 7dd9 d8bd
00000030: 0cf2 4c3d 8a16 aabd e07f 0ebc c964 09be
00000040: 2045 593c 68ea d3bc 40fd 69bd 0040 43b9
00000050: d6e7 45bd ccf2 16bd de75 f93d 6c1b 703d
00000060: 66c1 1abe 3ac7 16be aab9 c4bd 62b5 cabd
00000070: 34bf efbd da15 b13d 6847 ddbc 36ab 1bbe
00000080: 00d0 fdbd a3b5 c5bd fd1e 113e a278 da3d
00000090: 3ed4 823d a90f bcbd 3d77 123e 4e5b e23d
000000a0: ac0e 9f3d a6cd abbd c8ab a9bc ab0a ecbd
000000b0: b980 13be 25dd 143e 50e1 07bc 5070 93bd
000000c0: b1af 16be 72ea 52bd ca42 b43d e2b3 f13d
000000d0: 483b 843d e48f a83d 7872 7abd 223d 8f3d
000000e0: ed71 dfbd 6365 213e d016 1cbe 5860 1abe
000000f0: d879 ea3c d8d3 c5bc ce3b c33d 2034 043d
00000100: eb78 203e a101 d1bd 3426 d3bd 5780 06be
00000110: 1411 a33d d003 5a3d 4509 00be 4ccc 043d
00000120: 9022 143c b08f 9cbc 5f92 1b3e 70a1 6fbc
00000130: 06c9 1fbe c8da e03c 982b 673d a8fb e1bd
00000140: dfd9 133e 385b c93c e80d cfbc 6a33 f63d
00000150: f8e6 d0bd ed46 1b3e f213 f13d 22cd 87bd
00000160: ef83 b2bd 50f8 4b3d 5e85 e63d e7be 10be
00000170: 497a 04be 7e4f c53d 00fb a0bd 904c 19be
00000180: 899f a4bd 6c14 823d 08f4 b23c 060c f73d
00000190: 2de9 e4bd 0e9d be3d 669c f33d 96d4 cc3d
000001a0: bec8 5bbd 6050 3dbd e206 ffbd 2e59 4fbd
000001b0: 8635 c3bd b38f 13be a2bb c03d d018 56bd
000001c0: 97a1 0abe 1e77 f8bd 008b a13a 783e efbd
000001d0: 5970 d1bd b04b abbc 56ed 82bd 007d 6d3d
000001e0: d90a 8abd 1a72 df3d 5707 b4bd a43b 803d
000001f0: 6ad8 7dbd dc18 173d 9506 0a3e 93b1 113e
00000200: 70c2 ecbd 2852 5a3d 3cc1 543d 666b f0bd
00000210: c7f3 1d3e 90c9 093c cad1 e63d 4c64 90bd
00000220: d87a 893d e4d7 4cbd 0b1d 17be 2ce2 97bd
00000230: 1ac7 c43d a0bc f2bb 76c7 febd 33c1 003e
00000240: e327 98bd 3e4e b5bd 596c 1b3e cf93 b8bd
00000250: 6873 f5bc d415 7d3d 90c5 afbc 04ef 59bd
00000260: eb4e 063e 1e25 ec3d 504b aa3c 802e 90ba
00000270: cb22 1b3e beb7 9f3d 0278 ae3d ec82 073d
00000280: 2072 ef3b 0033 96ba fe3b e6bd 201b 813b
00000290: 0c86 7d3d 1c37 7f3d 317e 13be 00f2 6c3c
000002a0: 08c6 01bd 6613 d13d 9ac0 68bd adb3 f3bd
000002b0: 7cc4 15bd 7ae7 db3d 00e3 4b3c 50af 973c
000002c0: def3 77bd d281 c23d fa01 4ebd 631a 1bbe
000002d0: 8003 31bb 2c26 03be f986 073e 5aea 993d
000002e0: 4e97 e63d e0ee d1bb c8c3 d8bc 8d28 b5bd
000002f0: f0b8 80bc 33d8 bcbd 6abf cebd 5063 6b3d
00000300: b450 45bd cc7d 05be ec0d 523d fa21 b6bd
00000310: 93e2 1abe 90aa 203c 8e2d da3d 626b 69bd
00000320: 8274 d1bd 66b0 eb3d a005 56bd 5aa8 d83d
00000330: 7e73 1cbd 70a0 96bd 203a 1fbc e067 64bc
00000340: 7087 793d 12cc fe3d e301 213e b919 123e
00000350: f6b2 c63d 6fd7 163e 5c7b 06be b2e7 74bd
00000360: 3e14 e83d c0c1 6e3d 20fa c53b 683f bb3d
00000370: 1792 193e eb32 173e f0c3 90bd 2e40 be3d
00000380: 164e e93d 66ca e73d 32f3 ccbd 6676 21be
00000390: 3917 c3bd de23 f43d 90e1 103c dc9c 253d
000003a0: 1acb 2fbd de68 e73d 008e 9dbb e04f c63c
000003b0: 3a5b f93d 1e54 75bd 5c8b 10be c04c db3b
000003c0: e8cb 20be 5a33 fe3d 8439 c0bd caf8 f93d
000003d0: 2de4 94bd fe8d a53d 1038 333c 6a0a 71bd
000003e0: 035f 153e c281 6cbd 4e23 e1bd c06c f63c
000003f0: 4081 33bc d8ef 263d 0279 913d e091 2fbc
-0.08519868 -0.016439632 0.012441814 -0.051693402 0.018321067 -0.029554963 -0.10047356 -0.093250476
0.09840877 -0.11139509 0.12436338 -0.105883576 0.05003552 -0.0830508 -0.00869748 -0.13417353
0.01326111 -0.02586861 -0.057126284 -0.00018620491 -0.0483168 -0.036852643 0.121806845 0.0586199
-0.15112838 -0.14724436 -0.09605725 -0.09897877 -0.11706391 0.08646746 -0.027011588 -0.1520203
-0.123931885 -0.09653785 0.14171977 0.1066754 0.06388138 -0.091826744 0.14303298 0.11052571
0.0776647 -0.08388834 -0.020711794 -0.11525472 -0.14404573 0.14537485 -0.008293465 -0.07199156
-0.14715458 -0.051493116 0.088018015 0.11801888 0.064566195 0.0823057 -0.061144322 0.06994082
-0.109104015 0.15761332 -0.15243077 -0.15075815 0.028622553 -0.024148867 0.09532891 0.032276273
0.15671127 -0.10205389 -0.10310021 -0.13134895 0.07962242 0.053226292 -0.12503536 0.032421395
0.0090414435 -0.019111484 0.15192555 -0.014625892 -0.15604028 0.027448073 0.05643806 -0.11034328
0.1443858 0.02457963 -0.025275186 0.12021525 -0.10200304 0.15163775 0.117713824 -0.06630923
-0.087165706 0.049797356 0.112559065 -0.14135323 -0.12937273 0.096343026 -0.078603745 -0.14970613
-0.080382414 0.063515514 0.021844879 0.1206284 -0.11177287 0.093072996 0.11895065 0.10001485
-0.05365824 -0.04621923 -0.12452485 -0.050622158 -0.09531693 -0.14410286 0.09410788 -0.052269757
-0.13538204 -0.12132095 0.001232475 -0.11681837 -0.10226507 -0.020910114 -0.063929245 0.057980537
-0.0674035 0.10910435 -0.087904625 0.062613755 -0.061973967 0.036888942 0.13479073 0.14227895
-0.115605235 0.053301007 0.051942095 -0.117392346 0.15425025 0.008409873 0.11270483 -0.0705038
0.06712884 -0.050010577 -0.14757173 -0.07416186 0.09608288 -0.0074077398 -0.12440388 0.125737
-0.07429483 -0.08852814 0.1517805 -0.09012567 -0.029962257 0.061788395 -0.02145651 -0.05320646
0.13116042 0.11530517 0.020787865 -0.0011000186 0.15149991 0.07798718 0.085189834 0.03308384
0.007307306 -0.0011459291 -0.11241911 0.003940001 0.061895415 0.062308416 -0.14403607 0.014461994
-0.031682998 0.10208778 -0.056824304 -0.11899505 -0.036564335 0.1073751 0.012444258 0.018516213
-0.060535304 0.094974175 -0.050294854 -0.15146784 -0.0027010143 -0.1280753 0.13235082 0.07515402
0.11259328 -0.00640665 -0.026460543 -0.08845625 -0.015713185 -0.09220924 -0.10095103 0.05746776
-0.048172668 -0.13036269 0.05128281 -0.08893199 -0.15125494 0.00980629 0.1065322 -0.056987174
-0.102273 0.11508255 -0.05225146 0.105789855 -0.03819608 -0.0735482 -0.009718448 -0.013940781
0.06092018 0.12441267 0.15723376 0.14267625 0.09702103 0.14730619 -0.13132995 -0.059791274
0.11331986 0.058290243 0.00604178 0.09142953 0.14997135 0.14765517 -0.07068622 0.09289585
0.11391847 0.11317901 -0.10007323 -0.15767822 -0.09525914 0.119209036 0.008842841 0.040432796
-0.042918302 0.11299299 -0.0048081875 0.02420801 0.12175603 -0.059894674 -0.14115661 0.006692499
-0.15702784 0.12412138 -0.0938597 0.12205656 -0.072700836 0.080837235 0.010938659 -0.058847822
0.14587025 -0.057740934 -0.10993062 0.030081153 -0.010956109 0.040756077 0.071031585 -0.010715932

weight_hh_l0 f4 [160, 40]
00000000: 43e6 113e 772d 063e b804 673d 9ca6 203d
00000010: 5dde 073e 806b 8e3b 4a1d 8a3d de3f 22bd
00000020: 3d69 033e ca38 a13d 6619 9b3d f793 043e
00000030: 3e7e 13be 1e61 fe3d 0872 85bc f046 633d
00000040: dcfe 943d 785d 55bd 1b61 1c3e a40b aa3d
00000050: 30a3 00be 8adb e6bd 47db 1c3e d44e 05be
00000060: ccae ddbd 018c 07be e693 dc3d 50ba 26bc
00000070: aeb5 e23d da25 f5bd aad6 e73d ac72 993d
00000080: 06f1 d53d 307f 45bd 7467 113d e1fd babd
00000090: 2b44 b8bd 685b fdbc 880d b83c c492 5dbd
000000a0: 34b0 683d d29b dc3d 4ee9 1ebe 1993 1abe
000000b0: f85a 8a3d 524a 953d 3bc1 1c3e c29c ecbd
000000c0: aa72 6dbd 881a 1b3d f020 d3bc aa20 70bd
000000d0: 2fb3 1d3e 0055 c83c ea47 d43d f4ff b13d
000000e0: 19b2 0fbe 5c62 7abd 804e cbbc 7833 a73c
000000f0: 71b9 0e3e a84b b33c 054f c3bd 908e fdbc
00000100: 99cb 90bd e888 943d 0646 13be 8032 0fbb
00000110: 2c38 21bd ecc0 0ebe b74a 82bd bc91 2abd
00000120: fae2 c83d d266 17be e307 86bd 3bab c8bd
00000130: 7243 a23d 8c50 85bd 880c 5c3d 1649 68bd
00000140: 9cdf dabd a2ce ccbd 22b5 eb3d ac80 1e3d
00000150: a9e4 093e 0054 7f3a 2956 173e 6ee8 8b3d
00000160: 2a03 75bd a054 a0bb 5826 003d 18f2 0bbe
00000170: 2a55 943d deae 4abd a001 ebbc 7a82 a13d
00000180: d62f 9fbd ad99 0e3e 76ca 823d e175 1c3e
00000190: 743e 9c3d b87e 8fbc 9488 2cbd f688 e13d
000001a0: f611 eabd 3218 d63d 3053 71bd 6881 843c
000001b0: 04c8 aebd e06f e3bb d00b 40bd 80a7 76bb
000001c0: 88d8 a5bd a00d 1abe e893 d8bd 06dd 03be
000001d0: 694a 003e 5070 433c a4d4 febd 91a0 123e
000001e0: e08c d93b f035 6b3d bb54 1a3e 48eb 943c
000001f0: e4a4 1ebe 5197 0dbe 4c34 41bd 009c bcbb
00000200: 5093 4dbc 4e24 e03d b8b7 9ebd 7cc2 e2bd
00000210: 54cd cebd ee00 9f3d 9307 193e 6c34 d9bd
00000220: 5006 793c f5be 14be 5d1e afbd b5f3 88bd
00000230: 38dc 9c3c a0fe a53b fe6f ce3d 4015 8d3c
00000240: 500c 57bc 11f6 073e 9035 653c 988e 82bc
00000250: f222 17be 9081 cf3c 368e 9abd 480c 8c3d
00000260: fe1f f23d a8b7 933c be56 9c3d 586f aebd
00000270: 487d b93c 9ee9 eb3d 40a6 a93d 9e69 1dbd
00000280: ef5c 0d3e 0721 073e 68a1 e4bc fafe c83d
00000290: 0026 093a 258d 113e e0be ffbb cd7d 113e
000002a0: 1d4f f1bd 6c40 3f3d cea8 fe3d 2815 a23c
000002b0: 1c5c 1bbe 7865 d4bc 3709 0a3e c222 e83d
000002c0: 802f 973d b355 053e 2668 96bd adda 113e
000002d0: 309e 78bc a253 a73d 8081 2c3b 5848 aa3c
000002e0: 8a17 0abd 2c02 09be 34f1 b13d d80c 133d
000002f0: c0fd ecbd e3b6 1e3e d696 f63d a4bf 393d
00000300: 0e19 d8bd 51ad 213e df97 96bd 7d68 9dbd
00000310: c021 f2bb 84d2 97bd fec3 1cbe 02b3 e83d
00000320: 7707 ffbd fe81 f0bd 5e1b df3d 3a6f 03be
00000330: 5d0b 1a3e b4bf 463d 809a dc3b 4028 0abb
00000340: 0073 bb3a c21f 6ebd a889 1cbe 47d5 86bd
00000350: 987d a23c f6ac f33d a625 07be 94c5 0ebe
00000360: a61e 20be 273a afbd e020 ea3b 0ca6 87bd
00000370: 68e3 71bd 9ead 46bd 625f 14be d361 0ebe
00000380: e2b0 f63d d0ae 0fbc 6eba f13d c4a4 103d
00000390: d394 0f3e 603a 643c 77a7 8ebd 8cb2 573d
000003a0: e042 5a3d 8295 b83d 8b9d 0bbe d0b5 a03d
000003b0: 2019 8e3b 1850 263d f559 143e 8005 06be
000003c0: 70ce 0a3c 461d 15be 308f 4b3c fb36 1a3e
000003d0: 4011 debc be4d 84bd 6a7d fd3d 20a3 07bc
000003e0: 0014 3fbb a8c7 e5bc 1ceb aa3d af75 f6bd
000003f0: aa69 98bd 0493 133d 58d0 833c 184c 06be
0.14247994 0.13103281 0.056400985 0.03922139 0.13268419 0.004346311 0.06743868 -0.03961169
0.12833114 0.0787216 0.07573204 0.12947069 -0.14403626 0.124208674 -0.016289726 0.055487573
0.07275173 -0.052091092 0.15271418 0.083030015 -0.12562251 -0.112723425 0.15318023 -0.13018352
-0.108243555 -0.13237001 0.10770397 -0.010176256 0.11069809 -0.1197011 0.11320241 0.07492575
0.10446362 -0.048217 0.03549905 -0.09130455 -0.08997377 -0.030927375 0.02246739 -0.054095045
0.056808665 0.10771908 -0.15518686 -0.15095176 0.06755632 0.07289566 0.15308087 -0.11553337
-0.05797068 0.0378671 -0.025772542 -0.0586249 0.15400384 0.024454594 0.10365279 0.08691397
-0.14032783 -0.06112896 -0.024817705 0.020410284 0.13937928 0.021886662 -0.09536556 -0.030951768
-0.07070083 0.07252675 -0.1438218 -0.0021850169 -0.03936021 -0.13940781 -0.06361907 -0.04164289
0.09808917 -0.14785317 -0.06544473 -0.097982846 0.079230204 -0.06509504 0.05372289 -0.056710325
-0.10687181 -0.100003496 0.11509158 0.03869693 0.13466133 0.0009739995 0.14778961 0.06831442
-0.05981747 -0.0048929006 0.031286567 -0.1366657 0.07242806 -0.049483173 -0.028687298 0.078862146
-0.07772796 0.1392581 0.063862726 0.15279342 0.076290995 -0.017516479 -0.04212244 0.11012451
-0.11429207 0.10453834 -0.058917224 0.016174987 -0.08534244 -0.006940827 -0.046886265 -0.003763646
-0.08097941 -0.1504426 -0.10575086 -0.12877283 0.12528385 0.011928633 -0.12442902 0.14319064
0.006639108 0.057424486 0.15071385 0.018178597 -0.15492588 -0.13827254 -0.047169015 -0.0057559013
-0.012547329 0.109444246 -0.07749885 -0.11072251 -0.10097757 0.07763849 0.14944296 -0.10605702
0.015199259 -0.1452597 -0.08550713 -0.066871084 0.019147977 0.005065754 0.100799546 0.017222047
-0.013125494 0.1327746 0.013989821 -0.015937135 -0.14759424 0.025330335 -0.07546656 0.0683828
0.11822508 0.01803191 0.07633732 -0.08517331 0.022642747 0.11519168 0.08283663 -0.038430803
0.13804983 0.13196193 -0.027908996 0.09814258 0.00052317977 0.14213999 -0.0078047365 0.14208145
-0.11782668 0.046692297 0.12434541 0.019785479 -0.15171856 -0.02592729 0.13480078 0.113347545
0.07382107 0.13020973 -0.073440835 0.14243574 -0.015174434 0.081702486 0.0026322305 0.02078645
-0.033713855 -0.13379735 0.08688584 0.03590092 -0.115718365 0.15499453 0.120404884 0.04534878
-0.10551654 0.15788771 -0.07353186 -0.07685945 -0.007389277 -0.074131995 -0.1530914 0.11362268
-0.12452596 -0.11743544 0.10893892 -0.12835398 0.15043397 0.048522666 0.006732285 -0.002108112
0.001430124 -0.058135755 -0.15286887 -0.06583648 0.019835278 0.11898224 -0.13197955 -0.13942558
-0.15636691 -0.085560136 0.0071450323 -0.06623468 -0.059054762 -0.048505418 -0.1448951 -0.13904504
0.120454565 -0.008769706 0.11803137 0.035313383 0.14021616 0.013929933 -0.06965535 0.05266051
0.053286433 0.09012891 -0.13634317 0.07847178 0.004336491 0.040603727 0.14487441 -0.13088036
0.00847207 -0.14561948 0.012424275 0.15060036 -0.027107835 -0.06460141 0.123774365 -0.008278638
-0.0029156208 -0.028049305 0.08345625 -0.12034165 -0.07442029 0.036028877 0.016090557 -0.13114965

bias_ih_l0 f4 [160]
00000000: 0517 013e 86fb fcbd a145 b1bd 60d4 053d
00000010: fadd d33d 60d4 023d 1ea3 6bbd 04fb 5dbd
00000020: d632 893d fbd7 203e 0038 703c 6a88 bc3d
00000030: 908f 00be 6af4 ff3d aa30 c73d ec34 1fbe
00000040: aaf3 1abe a22d a53d 69cb 15be 423b 08be
00000050: 4051 3a3d 3835 693d 4021 433c 2de8 0f3e
00000060: ce82 c53d 7b5a 093e b847 e2bc 3f72 053e
00000070: aaf5 83bd f637 01be 001a 88ba 22fd 00be
00000080: 7346 acbd f820 873d d77a 0bbe e0ec fdbc
00000090: 5c55 17be c0e5 a13b 50c5 b63c 16c6 eb3d
000000a0: d51d 9abd 44c0 06bd f0ed 923c e47f 103d
000000b0: 0c72 85bd ec88 1b3d b040 9cbd 8c0a 10be
000000c0: a0d7 85bb 1c46 c2bd a636 04be 737e d4bd
000000d0: 8eaf ca3d a828 f83c d788 edbd cce4 253d
000000e0: 04d5 843d 766f abbd 64ea 043d c6e9 20be
000000f0: 91ec 84bd 3073 23bc 40ac b2bc 4c03 673d
00000100: dadb a63d f4d5 553d 80de ac3b 10f0 b03d
00000110: a731 a5bd 2e8a 76bd d8fb b8bc 1584 013e
00000120: 1874 4abd e815 19bd 16e4 9d3d 40b7 51bd
00000130: 3c99 713d 649d 3d3d 2e30 1cbe 806d 293b
00000140: 2849 bd3c 6a6a d2bd e803 e33c f34b 183e
00000150: cb4e 013e 7655 debd 4e31 00be 00e0 fcbc
00000160: ac91 533d 735d a5bd befa bb3d 2277 be3d
00000170: b443 3cbd f9fb 1a3e bd07 9cbd 3ea0 c7bd
00000180: 10bf 143d 8632 e23d 077d 153e bdb8 e5bd
00000190: c020 27bd c31b 123e fcb3 21be 6082 543d
000001a0: 55fe 0f3e c870 ac3d e62b f23d e89a b7bc
000001b0: af9a 023e 0075 833b 48c1 1cbd 000f b0bc
000001c0: 9455 3bbd 20eb 523c 2b71 193e c8bc 923c
000001d0: 2005 803c 3a9b 803d 5469 bb3d e6de 5bbd
000001e0: 309a 1bbc c012 6a3b c07a 323b 4cc0 02be
000001f0: 90d8 c9bc 2c69 06bd f8a4 09be 0ce0 91bd
00000200: 255a 173e 98c8 ba3d a7d1 153e 6253 05be
00000210: 6737 0fbe 5f26 9fbd 009a c03a dca4 9c3d
00000220: 46fa debd 80b2 453d 009d 1a3d f28f db3d
00000230: a8c8 debc a4c5 74bd 4437 0fbe 2e08 6abd
00000240: 8c24 d5bd 98ee 853d 4fcc 11be cf5b b3bd
00000250: ea34 01be 26d7 c73d 7f40 1d3e 6da5 0a3e
00000260: 4cee 37bd 350e 80bd 008c 253c 348e 72bd
00000270: a45a 86bd 0f9e 0e3e f053 92bd aac9 f03d
0.12606438 -0.12352662 -0.08655859 0.03267324 0.10345073 0.031940818 -0.057528608 -0.054194465
0.06699149 0.1570739 0.014661789 0.092057064 -0.12554765 0.1249779 0.09726079 -0.15547532
-0.15132013 0.080653444 -0.14628376 -0.13303855 0.045487642 0.05693552 0.011909783 0.14053412
0.0964409 0.13413422 -0.027622089 0.13031863 -0.06443341 -0.12619004 -0.0010383725 -0.12596563
-0.084118746 0.06598085 -0.13621078 -0.03099674 -0.14778656 0.0049407184 0.022310883 0.11512391
-0.07525221 -0.032898203 0.017935723 0.035278216 -0.06515893 0.037972376 -0.07629526 -0.14066523
-0.0040845424 -0.094860286 -0.12911472 -0.10375681 0.09896766 0.030292824 -0.11598366 0.0405014
0.06485942 -0.08370869 0.032450095 -0.15714177 -0.06490434 -0.009976193 -0.02181065 0.05639963
0.08147402 0.052205995 0.0052755475 0.08639538 -0.08066111 -0.060190372 -0.022581026 0.12648042
-0.049427122 -0.037374407 0.077095196 -0.05120015 0.058984026 0.046292678 -0.15252754 0.002585262
0.023106173 -0.10274203 0.027711824 0.14872722 0.12627713 -0.10856144 -0.12518808 -0.03086853
0.051652595 -0.08074465 0.09178685 0.093000665 -0.045963004 0.15135182 -0.076186635 -0.09747361
0.036315024 0.11044793 0.14598475 -0.11216877 -0.040802717 0.14268403 -0.15791315 0.051882148
0.14061864 0.08419949 0.11824779 -0.022412732 0.1275432 0.00401175 -0.038270265 -0.021491528
-0.04573591 0.012873441 0.14984576 0.017912284 0.015627444 0.06279607 0.09150949 -0.05367937
-0.00949721 0.0035716742 0.002723381 -0.12768668 -0.024639398 -0.032815143 -0.13441837 -0.07122812
0.14780481 0.091202915 0.14630757 -0.1302009 -0.13985978 -0.077709906 0.0014694333 0.07648632
-0.108875796 0.048265934 0.037747383 0.10720815 -0.02719529 -0.059758797 -0.13985926 -0.057136707
-0.104073614 0.06539649 -0.14238094 -0.087577455 -0.12617841 0.09757833 0.15356635 0.13539667
-0.044904992 -0.0625271 0.010104179 -0.059217647 -0.06560257 0.13927482 -0.07144916 0.11757214

bias_hh_l0 f4 [160]
00000000: 3877 85bc b0dc 1ebc 6822 e2bc 80b1 47bb
00000010: 86fa e73d a8d5 053d 8bf0 093e 4931 163e
00000020: 805f 3e3c 1cf2 7f3d aaaa cc3d fa18 f83d
00000030: 80f5 45bb 2085 883c 806c 21bc f8d4 a43d
00000040: 3c2a 653d 9a50 d33d 07c8 003e 9344 0f3e
00000050: 4dcc d4bd 480c 14be dc31 a8bd 1efc 93bd
00000060: ce5f aabd 5216 923d b169 fdbd 80b8 b23a
00000070: f04c 05bc 202c b13c 7801 453d da83 5cbd
00000080: 72b1 863d 88d0 ebbd ced5 0fbe e289 d4bd
00000090: 0358 8bbd aad2 b13d f0a2 f0bc ba8b dc3d
000000a0: 7070 713c aaa7 b03d 00ba fbbc 30e0 c4bc
000000b0: 2003 8b3d 2413 203d 0363 163e 801e 463d
000000c0: 7475 543d 804a 863d c820 36bd 7883 803c
000000d0: fa95 ccbd 50af fcbc 5e45 ddbd ecc3 9cbd
000000e0: a863 e43c e012 7fbc dce4 43bd ceb9 52bd
000000f0: 0e81 923d cc55 99bd cb6a 163e d3c6 143e
00000100: 60f8 7c3c 4d4f 0dbe 485e c7bd d853 e13c
00000110: facb e43d c5ae bdbd 9b38 1b3e 8490 a73d
00000120: 5e32 ce3d 3a7d c43d 00b5 1ebb 5cf1 13be
00000130: cfb7 1b3e 5adf d2bd 21e1 21be b6a6 31bd
00000140: e615 14bd c85a 0f3d 90ad d83c 52c7 c4bd
00000150: 5643 dd3d 24bf e3bd 3c19 203d b8ae 4b3d
00000160: 4e9c f6bd f853 4a3d 1cf0 9d3d 4acb f33d
00000170: 3068 00bc 8f58 a2bd 7854 b03d da3c d83d
00000180: ebd8 95bd 806a 9ebd 117a a6bd 74af a33d
00000190: 0c2f 783d ce29 b53d 0a60 21be a08a cbbd
000001a0: a7cf 1e3e b6d6 863d 5013 d9bc 2387 053e
000001b0: 90bc 793d 50e1 11be bf06 073e 4cba 54bd
000001c0: ca1b 893d 5ef5 ee3d 9e93 1abe 6683 d83d
000001d0: 84dc 7b3d 8488 5b3d 350c 0f3e ca42 76bd
000001e0: 40f8 b53b 0684 8fbd fac1 863d e0f7 f5bc
000001f0: 60b6 c7bc 80ab a23b 406c 48bb 1246 2fbd
00000200: 30bd 093c f099 f6bc a489 ad3d 864b b5bd
00000210: dc8d a6bd a78b 073e 4eff f6bd 80d2 103d
00000220: 705e 7ebc 0876 413d a677 ce3d 005e da39
00000230: edf6 94bd cb05 213e 827f a53d 488f 873d
00000240: b0bf 47bc 6082 963c a46c 403d e014 663d
00000250: 54ce 863d 0cde 88bd 2cd5 763d 9d8a 13be
00000260: e644 a63d 5e53 d83d 5686 0cbe 5e23 aebd
00000270: 2b76 0c3e a0b6 2a3c 4069 363c 1baa b0bd
-0.0162922 -0.009696171 -0.027604297 -0.0030470788 0.113270804 0.03267446 0.13470666 0.14667238
0.011619449 0.062486753 0.09993489 0.12114139 -0.0030206144 0.016665041 -0.009852529 0.08048433
0.05594848 0.10318108 0.12576304 0.13991003 -0.1039053 -0.1445781 -0.08212635 -0.07225822
-0.083190545 0.071331635 -0.12373675 0.0013635308 -0.008136019 0.021627486 0.048097104 -0.05383668
0.06576814 -0.115143836 -0.14046404 -0.103778616 -0.06803896 0.08682759 -0.02937457 0.10768838
0.01473628 0.086257294 -0.03072834 -0.024032682 0.067877054 0.039080754 0.14686207 0.04836893
0.051869825 0.065571785 -0.044464856 0.01568769 -0.09989543 -0.030845314 -0.10804246 -0.07654557
0.027879551 -0.015568465 -0.04782568 -0.05144673 0.071535215 -0.074870676 0.14689176 0.1452897
0.015440077 -0.13799782 -0.097347796 0.0275058 0.11171718 -0.0926185 0.15158312 0.08181861
0.100682005 0.095941976 -0.002421677 -0.1444754 0.15206836 -0.10296507 -0.15808536 -0.04337188
-0.036153696 0.034998685 0.026449949 -0.0960833 0.10803859 -0.111204416 0.039086565 0.04972717
-0.120415315 0.049396485 0.07711813 0.11904009 -0.00783734 -0.079270475 0.08609861 0.105584815
-0.073167644 -0.07735157 -0.08128751 0.079924494 0.060591742 0.08845864 -0.15759292 -0.0993855
0.155089 0.065839216 -0.026498467 0.13039832 0.060970843 -0.14246106 0.13186167 -0.05193548
0.066947535 0.11667894 -0.15095374 0.10571937 0.061489597 0.05359699 0.139695 -0.06012229
0.0055532753 -0.07007603 0.06579967 -0.030025423 -0.024378955 0.004964292 -0.00305821 -0.042791434
0.008406922 -0.0301027 0.084735185 -0.088522956 -0.08132526 0.13236867 -0.12060414 0.035357
-0.015525445 0.047231704 0.10081415 0.00041650236 -0.0727366 0.15724866 0.08080961 0.066191256
-0.012191698 0.018372715 0.046978608 0.05617225 0.06582323 -0.06682977 0.06026189 -0.14408346
0.0811861 0.10562776 -0.1372312 -0.085028395 0.13716953 0.010419518 0.011133492 -0.08626195

weight_ih_l0_reverse f4 [160, 20]
00000000: 8c08 3a3d c8fa b03d da59 a3bd b8a0 1a3d
00000010: 00be 413d 368a c4bd 7a81 3bbd ec5d 713d
00000020: e2cd 9fbd e299 c93d 965d 72bd 0ef4 82bd
00000030: e1d0 00be c095 3d3c 323c f23d 4012 aabc
00000040: 5559 eebd ac93 6b3d c018 423d 5633 a63d
00000050: a203 fd3d a0cd 293c 82ac e4bd 0e89 d6bd
00000060: 2446 643d 338c bbbd ec8f 92bd a030 4cbc
00000070: c242 953d 0053 173c 0469 29bd b5bb 093e
00000080: 16c3 a3bd cce7 28bd a059 4cbc 255a bbbd
00000090: f053 8bbc f224 7cbd 39f2 9bbd 10bc 053c
000000a0: 608f 4f3c 0f79 0ebe 3072 0cbe 129d b63d
000000b0: 1aa5 fc3d e0e3 fabb 2015 06be 1124 1b3e
000000c0: 2862 b03d f6f0 de3d 24d1 d5bd ac19 03bd
000000d0: e5b7 1d3e 9bfe 003e 0297 d1bd c22f dd3d
000000e0: c468 733d c632 eebd 303d 0ebe ee28 14be
000000f0: f8df f43c 7239 02be c081 aa3d 7b30 213e
00000100: 57f4 203e bcaf 6d3d 769a 75bd d361 1c3e
00000110: 9d7a 0ebe eadb 0abe 900b 7b3d d012 e63c
00000120: 6e92 44bd f030 173c 4460 003d 5027 8ebd
00000130: 1c2a e6bd 3725 0a3e 7071 ae3c 30b3 be3c
00000140: 80eb f53a f67b 78bd 7a92 1fbe 0042 5bbb
00000150: 09b2 a4bd d866 ac3c 2f51 17be 14f0 783d
00000160: 14db 0c3d 11a9 1ebe da2f c73d c0c7 c13c
00000170: bed3 d73d a0f7 043d 6873 bbbd a612 23bd
00000180: 5df2 083e 9667 da3d 489f efbc ffb6 013e
00000190: 40cf a13b 40e1 9dbb c8dc bcbc 665a e2bd
000001a0: 3847 e53c 1650 f93d 66d6 ed3d 452c aabd
000001b0: 7a41 ed3d 4043 6b3d 6f07 073e a17c 20be
000001c0: d0e9 58bc 1858 debc 2e9d 0cbe 9edd 11bd
000001d0: 6071 00bc 822f cd3d 1672 1dbe 14b1 edbd
000001e0: 1457 553d e9f3 debd 70de bbbc 15c7 133e
000001f0: 6d3f aebd faa4 58bd da20 bdbd c024 3abb
00000200: e056 523c a110 113e 3645 11be 00d1 caba
00000210: 765f f0bd f27a 1ebe 303d 763c b070 dc3c
00000220: 680c 683d 5c62 7e3d 383b ff3c 3ced 253d
00000230: a087 a83b 601a e1bc 9662 f93d 6086 613d
00000240: 66bc 1cbe fabe 853d 4896 a5bc eccb 00be
00000250: c0fb 063d 6d58 133e f849 263d a8b4 9b3d
00000260: e77e b2bd 9c7b 2e3d db62 083e f56a 0c3e
00000270: 25a4 c8bd d6d6 5ebd 4835 543d 7ef0 fa3d
00000280: ad01 203e 70bc 6bbc 309b 313d 4d6b 033e
00000290: 045b 523d 0086 be39 b507 1d3e 62d8 98bd
000002a0: 603c e03b 7a37 fd3d 4e96 0dbd 49b0 07be
000002b0: 0001 11ba 8f55 d1bd b6ea e73d b07b b83d
000002c0: f6cd ed3d 6b84 9fbd 5ead a8bd 3bb4 c1bd
000002d0: 82d1 5cbd 266c c1bd fb47 bebd a267 ce3d
000002e0: 8e67 22bd be97 b53d 3e9e c43d 3c15 c9bd
000002f0: 52bb 6dbd 6fa7 81bd edcd e8bd 465e c6bd
00000300: 7e27 ffbd 10cb f9bc 829b f83d 4406 a33d
00000310: 18d6 3e3d 08f6 b83d b097 13be e894 5c3d
00000320: 9c93 40bd 42af e03d 8b20 05be be75 a7bd
00000330: c0e6 103b 50b4 e0bd 08e8 01bd ccbc 473d
00000340: 003c 013a c0a2 8e3c 0a8e e23d bc4e 16be
00000350: b459 803d 81a2 083e 6a2b cd3d 6054 b43d
00000360: 38dd d33c f24e f33d 6d14 173e 2fc3 203e
00000370: c8f6 f8bc a8f2 4c3d 2aa9 ed3d 09de f7bd
00000380: d91d 053e 1abd 9cbd bbd1 13be 3e56 b33d
00000390: d025 ab3d 1498 663d 65cd 07be a04a adbd
000003a0: 318f 153e 2aaa 10bd 0c85 6c3d 6212 5bbd
000003b0: 5626 f23d 227f 9f3d 0082 2abc 0d90 8fbd
000003c0: 5077 9bbc fa63 e0bd d62c d6bd 70f5 0e3c
000003d0: 1657 f63d a679 54bd 7678 77bd 1565 c9bd
000003e0: 0607 bc3d 34c5 3a3d 3004 163d 5c5e c5bd
000003f0: 4d52 133e b037 5cbc 9444 333d 376a 1ebe
0.045418307 0.08641583 -0.07976122 0.03775093 0.04730034 -0.09596674 -0.045777775 0.05892746
-0.07802941 0.09843804 -0.05917128 -0.06394206 -0.12579681 0.011571348 0.118278876 -0.020760655
-0.116381325 0.057513878 0.047386885 0.0811526 0.123542085 0.010363966 -0.11165716 -0.1047536
0.055730954 -0.091576 -0.07156357 -0.012462765 0.07288124 0.009236097 -0.041359916 0.13450511
-0.07996194 -0.041236684 -0.01247254 -0.09148053 -0.017007798 -0.06155867 -0.0761456 0.008162513
0.012668461 -0.13913368 -0.13715434 0.089166775 0.12336178 -0.0076565593 -0.13093996 0.15150477
0.08612472 0.108858034 -0.10440281 -0.032006904 0.15402181 0.12597124 -0.102338806 0.10800125
0.059426084 -0.11630778 -0.13890529 -0.14468738 0.029891953 -0.12717226 0.08325529 0.1574115
0.15718208 0.05802892 -0.05996176 0.15271692 -0.13913961 -0.13560453 0.061290324 0.028085142
-0.04799121 0.009227976 0.031341806 -0.06941092 -0.112385005 0.13490759 0.021294326 0.023278803
0.0018762201 -0.060665093 -0.1558322 -0.0033456087 -0.0804177 0.021045133 -0.14777063 0.06077583
0.034388617 -0.15494181 0.09725924 0.023654819 0.105384335 0.032462716 -0.09152871 -0.039812706
0.13373704 0.10664289 -0.029250756 0.12667464 0.004938036 -0.0048181117 -0.023054495 -0.110523984
0.027988061 0.12173478 0.11613159 -0.08309225 0.11584754 0.05743718 0.1318643 -0.15672542
-0.013239339 -0.027141616 -0.13731834 -0.03561174 -0.007839531 0.10018827 -0.15375552 -0.116060406
0.052084997 -0.10886366 -0.022933215 0.14431413 -0.08508191 -0.05289171 -0.092347816 -0.0028403252
0.012838095 0.141665 -0.14186558 -0.0015473664 -0.11736958 -0.15476587 0.015029237 0.026909202
0.056652457 0.06210552 0.031156167 0.040509447 0.005143121 -0.027478397 0.12177007 0.05505979
-0.15306243 0.065305665 -0.020213261 -0.1257779 0.03295493 0.143892 0.040597886 0.07602817
-0.08715611 0.04259835 0.1331896 0.13712676 -0.09796933 -0.054404102 0.051808625 0.122529015
0.1562564 -0.014388189 0.04336089 0.12833901 0.05135633 0.00036339462 0.15334971 -0.07463147
0.0068431348 0.12364097 -0.03456717 -0.13250841 -0.000553146 -0.10221397 0.113240644 0.090079665
0.116115496 -0.077889286 -0.08236192 -0.09458204 -0.05391074 -0.09444456 -0.09291073 0.1007836
-0.03964954 0.08866833 0.09600495 -0.09818503 -0.05803997 -0.063307635 -0.11367402 -0.0968595
-0.124587044 -0.030492336 0.12139036 0.079601794 0.046590894 0.09031302 -0.14413333 0.053852946
-0.04701577 0.10970928 -0.13000695 -0.081767544 0.0022110194 -0.10971892 -0.031715423 0.048764035
0.00049299 0.01741159 0.11062248 -0.14678472 0.062671095 0.1334324 0.10018046 0.08805156
0.025862321 0.11880292 0.14753886 0.15699457 -0.030391112 0.050036103 0.11604531 -0.12102897
0.12999667 -0.07653256 -0.14435475 0.08756684 0.083568215 0.056297377 -0.13261946 -0.08461499
0.14605404 -0.03531853 0.05774407 -0.053484328 0.11823718 0.077879205 -0.010406971 -0.070098974
-0.018977791 -0.10956569 -0.104577705 0.008725509 0.12028329 -0.051873825 -0.060417615 -0.09833733
0.09181027 0.045598224 0.036625087 -0.09637138 0.14386864 -0.013441011 0.043766573 -0.15470205

weight_hh_l0_reverse f4 [160, 40]
00000000: 00c8 e5ba 4035 60bc 60c2 713c 879c c0bd
00000010: a0eb e83c f4fd 1e3d 004b e7ba 2708 1bbe
00000020: aead 84bd b9df 02be ddf6 183e 8c2b 6a3d
00000030: 760e 43bd b4a4 083d 2a33 1dbd 01d1 0c3e
00000040: de22 90bd 502b f3bd 5cc4 18bd bf8c 85bd
00000050: eb16 0f3e c44e dcbd 8224 21bd 8b13 9dbd
00000060: 7699 ea3d c4e2 9f3d 9a5e cb3d f583 dbbd
00000070: 48a7 8fbd 3d98 213e 819d c3bd cee8 11be
00000080: 18b8 a33d 76ea 843d 802c 47bb 5aea da3d
00000090: 8e73 cf3d 00f0 18bc 56a5 c1bd 169d 2abd
000000a0: a0b8 743c d431 ba3d 9bcc 0cbe 3af6 d5bd
000000b0: 529d aa3d 1023 793d 70ad f0bc 6893 91bc
000000c0: 9099 6e3d d8c2 483d f445 70bd 00f4 1539
000000d0: 62e0 913d 9c7f c6bd d64f ea3d 1d1f 113e
000000e0: c853 85bc eab1 b93d b971 91bd ae4f bc3d
000000f0: 74f7 0bbd 5441 03bd 060f cbbd c6af a4bd
00000100: 8a97 943d 684e 013d bebb bd3d df0b 8bbd
00000110: 3180 a6bd c1f8 99bd b7e3 b1bd 58fd cd3c
00000120: f8d2 ff3c 0037 b33a 9ce1 edbd 48af 6f3d
00000130: 70d9 903d a06c 243c a2c4 c6bd ec7b 873d
00000140: 1006 70bd 4256 a93d 9e0a a13d 903e 07bc
00000150: f854 6bbd e0e0 11be 4a5a eabd 60c2 933b
00000160: 54e8 05be 80db 973c 8e33 cd3d dd10 173e
00000170: 70bf 5e3d 3e23 a3bd 1e03 f93d 10a0 b03d
00000180: 40ad b03b d664 f33d 059f 9fbd 60bb 61bc
00000190: 72a0 b23d dfe1 a2bd 50ec d53c fd24 143e
000001a0: eed3 11be f4b9 e3bd 8345 bbbd 006c 25bb
000001b0: 6069 a7bc 48c0 ec3c 10b1 c43c 5e95 c63d
000001c0: a4f5 b9bd 88d4 a73d 2761 103e c03f c4bc
000001d0: 6057 c33c 72cc c63d 0e73 fe3d 725d 97bd
000001e0: 5ee1 923d 003c 1b3d da90 09be 0a01 cebd
000001f0: 5a4e b73d 0096 763d 087a a93d 4030 15bd
00000200: 38b4 d9bd 8e4e 63bd 5440 54bd 808f e0ba
00000210: 52f0 39bd f2e0 ed3d f63d 20be 4a77 c23d
00000220: 265e 99bd 54cc a33d 763e f03d 9bde 063e
00000230: 9040 5a3c d4f9 583d 8000 393c f443 a5bd
00000240: 9001 76bc 40c3 a7bc a7ce 0bbe 7c29 f1bd
00000250: 67db 113e 2a0d ea3d 008b cfbc e5c9 013e
00000260: cba3 82bd 4084 75bb cb48 f5bd b0f3 283c
00000270: 1c25 1dbd c4d1 703d 8e75 fe3d 4457 403d
00000280: 7272 b63d 18ba fabc e7b8 06be 1de7 023e
00000290: 19d5 063e 54d6 0bbd 00bd edba 415d 0c3e
000002a0: c604 fc3d 0f95 063e fe37 b73d cfe8 043e
000002b0: 104d 843c b8af 8b3c 004e 523a 009f aa3c
000002c0: 82d9 e53d f83f dc3c 546d 50bd c09f 13bc
000002d0: 4002 6ebb f024 5b3d 54b1 96bd 3954 15be
000002e0: 783a d73c 2a0a c33d 9121 ecbd 6042 a2bb
000002f0: 362b debd 46d9 ab3d 4c66 12be c573 d3bd
00000300: fd9b c9bd feb7 80bd 6a52 d33d 4047 043b
00000310: acd1 3f3d b8be 08be 6090 0c3d a8d5 ba3d
00000320: 0581 bcbd e0fb 013d 5cc3 70bd 0d65 143e
00000330: 9d65 d2bd a480 7ebd 7a3a 04be f025 ae3c
00000340: 9a8a 923d f163 0fbe f26b ed3d aa5d 5ebd
00000350: a0f5 85bc ef54 173e 3558 87bd 4409 04bd
00000360: 622e cd3d ccce e2bd d8b2 e0bc 2032 41bc
00000370: 4ce1 15be 5136 b2bd 7039 19bc f60e cf3d
00000380: e2e2 be3d aa81 91bd a691 a73d 6015 3e3c
00000390: e0e5 403d 9922 19be 064e e83d e6e0 18bd
000003a0: 8867 e2bc 0c8b 093d c631 3cbd 282f a43d
000003b0: 2084 c8bb 3424 7b3d 92e0 d53d 7d83 c7bd
000003c0: 5009 013d a007 61bd 2970 053e d458 b73d
000003d0: b6b8 a73d b6b6 05be 604b 15be c997 123e
000003e0: fec1 73bd 936b 153e bb35 0b3e b1ed 043e
000003f0: 90b3 d2bc 964d f13d ac55 163d b0f9 423d
-0.0017530918 -0.013684571 0.014755815 -0.09404855 0.028432667 0.038816407 -0.0017646253 -0.15139829
-0.06478439 -0.12780656 0.14937921 0.057170436 -0.047621213 0.0333602 -0.038378872 0.13751604
-0.070379004 -0.118734956 -0.037296638 -0.06520986 0.13973586 -0.10757211 -0.039341457 -0.07669743
0.114550516 0.07806924 0.09930153 -0.10718528 -0.07014328 0.1578073 -0.09551526 -0.14248964
0.079940975 0.064900324 -0.0030391514 0.1068923 0.10129462 -0.009334564 -0.094553635 -0.041653715
0.014936596 0.09091535 -0.13749926 -0.104473546 0.08330788 0.060824454 -0.029379576 -0.017770484
0.058251917 0.049013942 -0.058660462 0.00014300644 0.07122876 -0.09692308 0.11441009 0.14172025
-0.016275302 0.090671375 -0.07101769 0.09194885 -0.034171537 -0.032044724 -0.09914975 -0.080413386
0.07255466 0.031568915 0.092643246 -0.067893736 -0.08129919 -0.07518149 -0.08686011 0.025145218
0.031228527 0.0013673007 -0.11615297 0.05851677 0.07072723 0.010035664 -0.097054735 0.06615433
-0.05859953 0.082684055 0.07863353 -0.008254662 -0.05745408 -0.14245939 -0.114430025 0.0045092553
-0.13076907 0.018537283 0.10019599 0.14752527 0.054381788 -0.07965706 0.12158798 0.086242795
0.0053917468 0.11884467 -0.077940024 -0.013777584 0.08722009 -0.07953238 0.02611366 0.14467235
-0.14241001 -0.11119452 -0.09144118 -0.0025241375 -0.020435989 0.02890028 0.024010211 0.09696458
-0.09080055 0.08194834 0.1409956 -0.02395618 0.023845375 0.097069636 0.12424289 -0.0739087
0.07171892 0.037899017 -0.13434163 -0.10058792 0.08950491 0.060201645 0.08275229 -0.036422968
-0.10630077 -0.055494837 -0.05181916 -0.001713261 -0.045395203 0.116151705 -0.15648636 0.09495409
-0.074886605 0.07997957 0.117306635 0.13170855 0.013321057 0.05297263 0.011291623 -0.08069602
-0.015015021 -0.020478845 -0.1365305 -0.11775491 0.14243852 0.11428292 -0.025334835 0.12674673
-0.06378897 -0.003746286 -0.11976775 0.010312006 -0.03836547 0.058793798 0.124247655 0.046958223
0.089085475 -0.030606315 -0.13156472 0.12783475 0.13167228 -0.034139946 -0.0018137991 0.13707449
0.12305598 0.13142799 0.089462265 0.12979434 0.016150028 0.017051563 0.0008022487 0.02082777
0.11223127 0.026885971 -0.050885513 -0.009010255 -0.003631726 0.053502023 -0.073580414 -0.1458291
0.026272997 0.09523423 -0.1152984 -0.00495176 -0.108480856 0.08391051 -0.14296836 -0.10324816
-0.098442055 -0.06285094 0.103184536 0.002018407 0.046830818 -0.13354003 0.034317374 0.09122783
-0.09204296 0.031734347 -0.05878006 0.14491673 -0.102732874 -0.0621344 -0.12912932 0.021258324
0.071553424 -0.14002968 0.115928546 -0.054288544 -0.016352475 0.14778493 -0.06608621 -0.0322354
0.100186124 -0.110745996 -0.02742903 -0.011791736 -0.14636725 -0.08701766 -0.009352073 0.101102754
0.09320618 -0.071048096 0.08182077 0.011601776 0.047094226 -0.14954604 0.11343007 -0.037323855
-0.027637258 0.03357987 -0.045945905 0.08016807 -0.006119266 0.061313823 0.10443224 -0.09741876
0.03150302 -0.054938912 0.13031067 0.089524895 0.08189528 -0.1305798 -0.14579535 0.14315714
-0.059511177 0.14591818 0.13594715 0.12981297 -0.025720388 0.117823765 0.036702797 0.0476014

bias_ih_l0_reverse f4 [160]
00000000: 80c3 8ebc 69de 193e 7c01 783d 3082 773c
00000010: ba30 e13d 90ff 8b3c 7592 113e 80ea 543b
00000020: 6891 a23c aeb0 fd3d d491 853d 4023 5f3d
00000030: 6ec5 d0bd 7f46 1d3e a651 a83d 0da8 0d3e
00000040: e4f3 5ebd 1838 9e3d cef5 c23d 70bf 4fbc
00000050: 0c57 8e3d 70ca 66bd f395 1abe 9c03 9bbd
00000060: 7683 fc3d 6b2e 033e a4c2 8d3d 4b55 05be
00000070: 3c20 dbbd baa7 ed3d 70f9 e23c 4c0a 043d
00000080: 281e a23d 48ba 1bbe 0a37 2abd a246 8bbd
00000090: 886e f3bd 6c44 5ebd f4de 50bd 407e 98bc
000000a0: 008a 25bc 5848 0fbd 8c88 b43d 066e d03d
000000b0: 52de cf3d d302 003e 8666 b93d 8ec1 d33d
000000c0: 44d0 33bd 7a8f 14be d4da 6ebd f64f ea3d
000000d0: 20b4 533c 1888 eebd 86db 2bbd a20b a6bd
000000e0: 266b dfbd 5ae6 58bd 3ec6 b03d 3674 a53d
000000f0: 1631 c93d 82cd d73d 428c 1dbe b0c4 493d
00000100: 7334 073e 468c db3d c8cd aa3d 92e5 36bd
00000110: b6ea 30bd 129c 12be 93a4 1bbe f03b efbc
00000120: 04e1 5e3d f0d3 1ebe 56d4 bd3d fae0 0ebe
00000130: 527f eebd 28b3 533d f078 12be e584 1ebe
00000140: 2cd7 233d e0c4 253d 9052 023d 962e 81bd
00000150: 3c59 453d d58d 103e 12a2 dd3d ee70 a73d
00000160: 0a4f 25bd 888d f5bd c0eb 75bd 309c 023d
00000170: ca45 d73d 66f0 853d 25a7 eebd 90ce 353c
00000180: 4c92 423d d63d 11be deac c9bd 6a88 ef3d
00000190: 9159 fcbd 1e07 e73d dece 20be f43a 74bd
000001a0: a445 133d 1bcb 1d3e c49e 0b3d a21b 86bd
000001b0: 5eae d83d fafb 98bd 108b 4ebd a247 eebd
000001c0: 3c21 edbd 7f34 033e 8ae8 cc3d 5068 7ebd
000001d0: b080 953c ea29 b73d 25e0 16be 40d2 a9bb
000001e0: 6916 9abd 2eab 963d 1f6e aabd 4811 49bd
000001f0: e294 eb3d 40ec 94bc 7010 733c 3e51 b03d
00000200: a111 1d3e 0654 9abd 0669 0dbd 10cf 23bc
00000210: a2eb 2ebd 8a69 f6bd 906c e53c f21b 75bd
00000220: a402 0d3d 60f2 ea3b ac20 8c3d dc43 1cbd
00000230: 00d0 2f3a 60d7 a63d 28d7 043d e380 173e
00000240: deb3 b83d 34bc 6fbd 8810 c23c 7360 033e
00000250: 003a 24ba b49a 1fbe b097 bcbc 9e7d e4bd
00000260: fe9e e33d dc2b fdbd d20d 95bd 08ab 6a3d
00000270: 84b6 323d d855 f1bd d000 b53c 4ee6 d13d
-0.017427206 0.15026249 0.06054829 0.015106723 0.10995622 0.017089635 0.14216025 0.0032488406
0.019844726 0.123872146 0.06521955 0.054476976 -0.10193907 0.15358923 0.08218698 0.13833638
-0.05443181 0.07725543 0.0951954 -0.01267992 0.069501966 -0.056345403 -0.15096264 -0.07569048
0.12329762 0.12810676 0.069218904 -0.13020818 -0.106995076 0.11604257 0.027706832 0.032236382
0.07915908 -0.1520778 -0.041556396 -0.068005815 -0.118863165 -0.05426447 -0.050993875 -0.018614888
-0.010103703 -0.0349811 0.08815107 0.10177235 0.10149826 0.12501077 0.09052758 0.10339652
-0.04389979 -0.14507857 -0.05831416 0.114410326 0.012921363 -0.116470516 -0.0419574 -0.081076875
-0.10909109 -0.052954055 0.08631562 0.08078806 0.098238155 0.105372444 -0.15385535 0.04925984
0.13203602 0.107201144 0.08340031 -0.04465253 -0.043192588 -0.14317349 -0.15199499 -0.029203385
0.05441381 -0.15510535 0.092690155 -0.13953009 -0.11645378 0.05168453 -0.14303946 -0.15480383
0.040000126 0.040470958 0.03181702 -0.06307714 0.048180804 0.14116605 0.10821928 0.081758365
-0.04035858 -0.119898856 -0.06003928 0.031887233 0.10511358 0.06539993 -0.11652974 0.011096612
0.0475028 -0.14183745 -0.09847425 0.11695941 -0.12321771 0.11280654 -0.15703914 -0.059626535
0.035955086 0.1540951 0.034086958 -0.06548239 0.10580133 -0.07469936 -0.05042559 -0.116347566
-0.115786046 0.12812994 0.10005291 -0.0621112 0.01824984 0.08943541 -0.14733942 -0.0051825345
-0.07523806 0.07356869 -0.08321785 -0.049088746 0.115030065 -0.018179059 0.014835462 0.08609246
0.15338756 -0.075355574 -0.034523986 -0.009998098 -0.042705186 -0.12031849 0.028005868 -0.059841104
0.034426346 0.0071700066 0.06842169 -0.038150653 0.00067067146 0.08146548 0.03243175 0.1479526
0.09018682 -0.058529094 0.023689523 0.12829761 -0.0006264746 -0.15586358 -0.023021549 -0.11156772
0.1111431 -0.12361881 -0.07278027 0.057292014 0.04363109 -0.117839515 0.022095114 0.10249005

bias_hh_l0_reverse f4 [160]
00000000: 483a ac3d 5c9e bcbd f8ea f13c d02d 2e3d
00000010: 0b8c 043e 80d8 edbc f1bf a1bd 749d 21be
00000020: bf25 17be c208 833d 60e7 dabd 005f 3abc
00000030: b4f5 43bd 8033 a5bb 0b47 99bd e16a 153e
00000040: 0723 003e a06e 803c b08c 353c b0aa 4a3c
00000050: 4f7f 043e dab7 98bd 7404 97bd a0f9 64bc
00000060: 606c 943b d61c c23d cee8 65bd 01f9 c2bd
00000070: 9f42 1b3e 4074 4ebd 724f 50bd 9e6a 70bd
00000080: 52a9 01be 0c70 11bd a084 5dbc c0a9 313d
00000090: c305 103e 00dc 94bb 8815 b23c 30ec 093d
000000a0: 4230 00be 6039 053d e034 293c 86d3 eebd
000000b0: 14e4 0abe 644e 133d 3a01 48bd 00cd 163d
000000c0: 00cd 1bba 3413 06bd 2fba 0cbe 687c 9cbd
000000d0: e817 4a3d b493 453d 86fc 00be b5fa afbd
000000e0: 58dc a6bd aa8e 7cbd 50dc 003d fc35 293d
000000f0: 08f3 8e3c 4bf0 003e 10e1 853d 492b 0abe
00000100: 6cbc 5dbd eea2 f53d 7cee f9bd 2808 a93d
00000110: d873 3fbd 6c06 a13d d84c 613d b2ed d53d
00000120: 6c52 393d 976c 0e3e b826 7f3d f9fb 1e3e
00000130: a865 b5bc dcfd 7fbd 48f2 43bd f866 773d
00000140: 006a f4bd a0cd eebc 2048 8e3d 608e 733c
00000150: 74bc 593d 448f 57bd c48c bb3d fc7a 10be
00000160: b0a9 10bd b67b 923d 5063 aa3c 8c9f 56bd
00000170: bc0e 383d 4233 e83d 4a31 34bd 0706 ebbd
00000180: 0038 4ebc 7572 fdbd 809e 0ebb 9e37 d5bd
00000190: 7d00 163e 3094 57bd 9614 c0bd 9cd3 26bd
000001a0: ba71 f23d 72c0 823d 976e 97bd 6acc bc3d
000001b0: 1832 a4bc c57e 103e e631 fb3d 9ad9 a53d
000001c0: 6622 dc3d 98e3 873d 89a0 16be f06a e5bc
000001d0: 56cc b0bd eef5 22bd 0371 89bd a02b de3c
000001e0: 9c77 923d 428d f83d b857 babd a6f2 c53d
000001f0: 948a 933d b883 de3c 72d8 e83d d8ba b3bd
00000200: 0688 32bd ac4c 213d 6e80 48bd 523f 0bbe
00000210: b5d9 0e3e eda6 c1bd 2f1a 173e 4f2a 153e
00000220: ace1 42bd 70e5 1dbd f8fe 16bd 4ce5 cdbd
00000230: 8e15 6dbd b876 2dbd 0447 833d e024 8bbb
00000240: 66f8 9f3d c041 6a3b e77d a5bd 06e7 87bd
00000250: fa0d 2bbd c081 0cbc 465f c23d 2856 193d
00000260: 6222 d93d d627 04be a9d8 c2bd fcb1 ba3d
00000270: dcbc 5dbd 3d43 aebd af18 193e 34c3 063d
0.08409554 -0.09209892 0.029530987 0.04252416 0.12944047 -0.0290339 -0.07897938 -0.1578272
-0.14760493 0.06398155 -0.106886625 -0.011375189 -0.047841743 -0.0050415397 -0.074842535 0.14591552
0.12513362 0.01567775 0.011080906 0.012369797 0.1293919 -0.07456942 -0.07373896 -0.013975531
0.004529521 0.09478156 -0.056130223 -0.0952015 0.15162133 -0.050403833 -0.050857015 -0.058695428
-0.12662247 -0.035507247 -0.01352039 0.043374777 0.14064698 -0.0045428276 0.021738783 0.03367251
-0.12518409 0.03252542 0.010327548 -0.11661439 -0.13563567 0.03596343 -0.048829295 0.036816597
-0.0005943328 -0.032733157 -0.13742898 -0.07640916 0.049339205 0.048236564 -0.1259633 -0.085927404
-0.08147496 -0.061659493 0.031460106 0.04131125 0.01744987 0.12591664 0.06537068 -0.13493074
-0.05413477 0.11993967 -0.122036904 0.08253509 -0.046741337 0.07862553 0.055004925 0.104457274
0.04524462 0.13908611 0.062292784 0.15525807 -0.0221432 -0.06249796 -0.04783848 0.060400933
-0.119342804 -0.029150784 0.069473505 0.014865488 0.05315824 -0.052626863 0.09157708 -0.14109415
-0.035318077 0.07152502 0.020799309 -0.05239825 0.044935927 0.11337902 -0.04399232 -0.11475759
-0.012586594 -0.123753466 -0.0021761954 -0.10410999 0.14648624 -0.052631557 -0.093789265 -0.04072915
0.11838098 0.06384362 -0.0739414 0.092186764 -0.020043418 0.14110859 0.12265377 0.08098145
0.107487485 0.06635207 -0.14709677 -0.028005093 -0.08632724 -0.039785318 -0.067110084 0.027120411
0.0715172 0.12136318 -0.09098762 0.09665422 0.07204166 0.027162418 0.11369409 -0.08775872
-0.043586753 0.03937976 -0.048950605 -0.13598374 0.13950236 -0.09455667 0.14756082 0.1456692
-0.0475785 -0.038548887 -0.03686425 -0.100535005 -0.057881884 -0.042349547 0.064100295 -0.004246339
0.0781105 0.0035744756 -0.080806546 -0.06635861 -0.041761376 -0.008575857 0.09490828 0.03743568
0.10602261 -0.12905821 -0.09513981 0.09115979 -0.05413519 -0.085089184 0.14950822 0.032901004
